wine_model.pt (torch, 307920 bytes, 24 tensors)

encoder.embedding.country_embedding.weight f4 [17, 32]
000000 c4 c7 64 bf 6c e9 f9 3e 1e c5 8e be 46 7b 1b bf
       -0.8936732 0.488109 -0.27884763 -0.60734975
000010 85 69 4e 3f a1 05 95 3f 91 36 51 3f 46 8f 37 3e
       0.8062976 1.1642343 0.81723887 0.17925748
000020 70 9f b4 3f fb 5b af bf 65 5c 6b 3f 38 90 88 bf
       1.4111156 -1.3699945 0.9193786 -1.0669012
000030 9f a8 fe bf 22 f2 2e be 46 c3 a6 be d8 30 aa be
       -1.9895209 -0.17084554 -0.32570857 -0.3324039
000040 5d c0 1c bf 87 1c d9 bf ae 77 99 3f 7d 05 99 3f
       -0.61231023 -1.6961831 1.1989648 1.19548
000050 5b 8f dc 3d d5 3c d1 3f cd 00 02 40 8e e6 68 3e
       0.107695304 1.634669 2.0312989 0.227442
000060 03 d5 4d bf ce 1e 31 40 8c f9 ab be d1 a4 22 3e
       -0.80403155 2.7675052 -0.33588827 0.15883185
000070 c3 57 05 3e 17 72 78 bf fc aa 1c bf 2a 8e 81 be
       0.1302176 -0.9704909 -0.611984 -0.25303775
000080 11 05 45 c0 4c 1e 90 3f ba a0 5e 3f e1 df d9 be
       -3.0784342 1.1259246 0.86964 -0.4255362
000090 ed 0c 3c be 44 ff c5 bf bb 38 13 bf a0 a7 fb be
       -0.18364306 -1.5468526 -0.5750844 -0.49151325
0000a0 5c 68 fd 3f ed 10 93 3f 0c 61 c4 3f ab b7 68 bf
       1.9797473 1.148954 1.5342116 -0.90905255
0000b0 37 50 70 3f e8 96 2e bf a9 27 4d bf 0d 5d 2e c0
       0.938724 -0.68199015 -0.8013864 -2.7244294
0000c0 2c ae fe 3d fa af d3 3f 37 75 a0 3f dd 3b 01 bf
       0.124355644 1.6538079 1.2535771 -0.5048197
0000d0 d6 09 a9 3d 25 79 92 3f a2 6a a1 be 4d 68 33 3e
       0.08253829 1.144322 -0.31526667 0.17520256
0000e0 d0 43 55 bf 34 0d 81 3e 2c fa 23 bf 2d 50 b7 3e
       -0.833066 0.25205386 -0.64053607 0.35803357
0000f0 4d 6f 1d be 9f f6 a9 3e b7 92 9d bf f1 f1 aa 3e
       -0.15374489 0.3319597 -1.2310399 0.33387712
000100 c9 a9 3e 3f c3 72 dd bd 93 ba a4 bf 10 53 96 3f
       0.7447782 -0.10812905 -1.2869438 1.1744099
000110 22 f4 5a 3e f7 c8 f6 be f4 ab 0e 3f ba 21 2d 3c
       0.21382192 -0.482002 0.5573113 0.010567123
000120 75 a2 9b 3e ce 2e 0c 3e ef db 42 3d b3 5d b7 bf
       0.30397382 0.1368973 0.047573026 -1.432547
000130 68 cd 79 bf 81 63 8c 3f 3a 86 48 be 56 53 bc 3d
       -0.9757905 1.0967866 -0.19582453 0.091955826
000140 ae e5 3b bf c4 65 c0 bf d8 f0 53 3f 9a fe d6 3f
       -0.7339734 -1.5031056 0.82789373 1.6796448
000150 ca e7 ca 3d 14 e2 7a 3f b2 56 df 3e b4 62 a8 3f
       0.099074915 0.9800122 0.4362083 1.3155122
000160 a1 99 19 bf b8 f6 2b bc 55 b0 bc be df bd c1 3f
       -0.60000044 -0.010495834 -0.3685328 1.5136069
000170 bf c4 35 bf af 05 11 3f e4 db 2b bf d0 5b f4 3f
       -0.71003336 0.566493 -0.671324 1.9090519
000180 96 0b c8 bf 37 78 4d 3e f1 66 d8 3f f8 da 3a c0
       -1.5628536 0.2006539 1.6906415 -2.9196148
000190 a5 94 86 3f ce 22 1c bf e7 f6 c8 bf c7 40 bf bf
       1.0514113 -0.6099061 -1.5700349 -1.4941643
0001a0 1c ab 58 3f 12 c4 5e bf cd 4b 8d 3f 60 66 c4 3d
       0.8463609 -0.8701793 1.1038758 0.09589839
0001b0 ec 81 48 be c4 a5 25 3f 20 a7 72 3f 41 2c 60 3f
       -0.19580811 0.64706063 0.9478626 0.87567526
0001c0 e1 71 ef be 73 8d b5 bf 3a df 8c 3f cf a5 a3 bf
       -0.4676657 -1.4183792 1.1005623 -1.2784976
0001d0 be ae 83 3f 51 e9 81 bf 7a bd 81 bd f9 76 be 3e
       1.0287702 -1.0149328 -0.06334968 0.37200144
0001e0 88 13 33 be 0a 5d 2f 3f 51 ba 9e bf 6d cd 8c 3d
       -0.1748792 0.6850134 -1.2400609 0.06875119
0001f0 52 a4 21 3f 99 ab 7d be 88 db 5d 3f f4 13 12 bf
       0.6314136 -0.2477249 0.86663103 -0.57061696
000200 13 84 a2 bf ce 28 a4 3e 39 68 c1 be 67 81 ea 3f
       -1.2696556 0.32062382 -0.37774828 1.832074
000210 b3 e5 16 3d e4 d9 4a c0 d0 38 a0 3e f2 46 b2 bf
       0.036840152 -3.169549 0.31293344 -1.3927901
000220 b7 b3 92 3e a3 06 72 bd 1d d6 4f 3f 25 ca 5f be
       0.28652737 -0.05908836 0.81186086 -0.21854456
000230 3f 37 1c bf 17 bd a8 be b9 63 66 3e 51 87 5c bf
       -0.610218 -0.32956764 0.22498979 -0.86143976
000240 56 36 da bf b4 04 08 3f 8f 97 b9 3e ed 88 ec be
       -1.7047832 0.53132176 0.36248443 -0.46198216
000250 6a c5 ed 3f 6a 7a fa 3e 95 ab e4 bf 0c fa 22 3d
       1.8575871 0.4892152 -1.7864863 0.039789245
000260 8c fb 73 3f c9 a8 f7 bf 76 3e d2 3f 8e 71 bc 3c
       0.95305705 -1.9348384 1.6425312 0.023003366
000270 41 6c 4c be b0 18 f6 be 95 5e 9c bf b7 22 30 3b
       -0.1996317 -0.4806571 -1.2216364 0.002687616
000280 f2 9a a2 3f 33 79 8e bf 12 0e 99 3f 5f 91 00 bf
       1.2703536 -1.1130737 1.1957419 -0.5022182
000290 df ff ad be 2f 85 9c 3f 65 b9 4f 3e 0d 79 7c bd
       -0.33984277 1.2228144 0.20285566 -0.06163888
0002a0 30 a8 da be e3 6d e4 bf 69 b6 9d bf 5d f5 70 bf
       -0.42706442 -1.7846035 -1.2321292 -0.94124395
0002b0 0b 71 6d be e2 b3 f0 3e b5 d4 98 bf 69 69 d2 be
       -0.23187654 0.4701224 -1.1939913 -0.41096047
0002c0 e5 bb bc be 50 82 2a bd 1f cd 12 bf 3b 3a d4 be
       -0.36862102 -0.041628182 -0.5734424 -0.41450676
0002d0 cc f8 58 3f 8c ce c0 bf d0 9f b5 bf a6 d8 0a 3f
       0.84754634 -1.5063033 -1.4189396 0.5423683
0002e0 d1 46 cd 3e e4 83 de 3e 66 bc c4 be f8 08 0b 40
       0.4009309 0.4346 -0.38424987 2.1724224
0002f0 bd f4 60 bf 9d 27 2b 3e c6 80 5e bf ab 36 e2 3e
       -0.8787344 0.1671433 -0.8691524 0.44182333
000300 98 ee ec bf d3 fd 19 bc 60 80 4d be 30 9e 00 3f
       -1.8510313 -0.009398895 -0.20068502 0.50241375
000310 84 66 2d bf 72 37 6b bf d3 50 ab 3f e0 be 71 3e
       -0.6773455 -0.9188148 1.338404 0.2360797
000320 dc 26 0d 40 f6 d0 81 be 03 4b bb bd fd 42 02 3f
       2.2054968 -0.25354737 -0.09145167 0.50883466
000330 2d de 94 3f a6 a3 e1 be 4d cc 5c 3f a8 c2 73 bf
       1.1630303 -0.44070166 0.8624924 -0.95218897
000340 8a cb 88 3f e6 74 ce bf 8f 75 5c 3f 8b 26 20 3f
       1.0687115 -1.6129425 0.8611688 0.6255881
000350 33 3a 2f bf c3 3c 93 bf 45 1d b6 3f d8 3d 2a 3f
       -0.6844818 -1.1502918 1.4227682 0.66500616
000360 85 04 0b bf 88 b8 52 be 4d 8f 60 bf 4a 69 8c 3c
       -0.5430377 -0.20578206 -0.8771866 0.01714005
000370 40 97 20 3e 51 82 30 bf 5f f6 ec be e7 46 0d be
       0.15682697 -0.6894885 -0.46281716 -0.13796578
000380 04 15 51 bf a2 e4 aa 3f a9 c1 97 3f aa dc 97 bf
       -0.8167269 1.3351023 1.1855975 -1.1864216
000390 5b a4 d2 3d 49 62 92 bd e5 18 00 3f a0 5d 11 c0
       0.102852546 -0.07147653 0.50037986 -2.2713394
0003a0 1e f8 34 3f ad 00 2d 3f 77 ee f3 3e f5 c4 30 3f
       0.70691097 0.67579156 0.47642872 0.6905053
0003b0 2f e7 ed 3e 49 aa f2 be b9 84 33 3f 31 56 b7 be
       0.46465442 -0.47395542 0.70124394 -0.35807946
0003c0 32 7e d8 3d d2 bf ce bd a7 fe 6d bf 73 31 95 be
       0.10570945 -0.100951806 -0.92966694 -0.2913929
0003d0 c4 73 86 3e 3a 8b a5 3f 88 fe 60 bf ec ab 3b be
       0.26260197 1.2933114 -0.87888384 -0.18327302
0003e0 96 fa a6 3f c7 e2 1e bf a8 80 99 bf f0 b0 aa bd
       1.3045223 -0.62064785 -1.1992388 -0.083345294
0003f0 bc dd 23 bf 6c 38 ea bd e7 3c 6a bf b5 2d 1c 3f
       -0.64010215 -0.11436543 -0.9149918 0.61007243

encoder.embedding.type_embedding.weight f4 [2, 32]
000000 ec fe 34 3f 71 4a 16 bf c2 63 8d 3e 0a a0 81 3f
       0.7070148 -0.5870734 0.27615172 1.0126965
000010 16 fd 41 3f 2d a0 15 bf e7 62 10 bf e4 0d ae 3e
       0.75776803 -0.58447534 -0.56400913 0.33994973
000020 7d b2 24 bf c2 f6 17 c0 13 4d 2b bf f0 6a b7 bf
       -0.6433485 -2.374436 -0.6691448 -1.432951
000030 a0 16 9a bf 3f b5 f2 bf 0c e7 0c bf bb 34 68 3f
       -1.2038155 -1.8961562 -0.5504005 0.9070546
000040 b6 98 49 bf b9 7c a7 be dd 0c 1f 3f 97 f9 0e 40
       -0.78748643 -0.32712343 0.62129 2.2339838
000050 0d c5 c8 be b4 35 e5 3e 50 6a c0 3e 44 e2 82 3f
       -0.39212838 0.44767535 0.3758111 1.0225301
000060 62 01 6b 3f 7c 48 c3 be 8d 62 6d bf 44 3f 30 bf
       0.91798985 -0.3814124 -0.927285 -0.68846536
000070 55 d0 7f 3f 7f cb f2 bf 3a 52 fe 3e 52 7e e1 ba
       0.99927264 -1.8968352 0.4967211 -0.0017203784
000080 05 ba 8b 3c 6a a1 c1 3f 81 58 fa be c7 d2 bf 3e
       0.017056474 1.5127385 -0.48895648 0.37465498
000090 2b 32 a0 3f ce ca b0 3e 25 d8 68 be 66 83 18 3e
       1.251531 0.34529728 -0.22738703 0.14893875
0000a0 07 23 dd bf a7 81 65 3c 55 a9 04 c0 c6 10 98 3e
       -1.7276314 0.014007962 -2.0728352 0.29700297
0000b0 9d 7b c8 3f 02 f4 0b 3f 25 df ad bf 7a d5 07 c0
       1.5662724 0.546692 -1.3583723 -2.1224046
0000c0 8f 7a 3d be bf a3 ee 3e f7 fc 08 3e 4b 95 d4 3d
       -0.18503784 0.46609303 0.13377748 0.10380038
0000d0 14 65 43 3d ef 1e fb bd c8 eb e3 3e de c1 0d bf
       0.047703817 -0.122617595 0.44515824 -0.5537394
0000e0 63 4b 27 3f 23 67 86 3e b7 51 52 bf a0 9e 87 3f
       0.65349406 0.26250562 -0.82155937 1.0595284
0000f0 0c f4 76 3e d1 57 fb 3e ce 34 98 be b8 89 38 bf
       0.24116534 0.49090436 -0.29727787 -0.7208514

encoder.embedding.taste_embedding.weight f4 [4, 32]
000000 c5 5d 14 40 89 b6 00 c0 cd 90 48 bf de 49 a6 3f
       2.3182232 -2.011141 -0.7834595 1.2991292
000010 b7 31 e0 3e e2 de c0 3f 95 57 7b 3f 17 2c 1a 3f
       0.4378793 1.5068018 0.98180515 0.60223526
000020 a1 0c 6f 3f 1f 7e b8 be fb 2d d4 bd d5 c4 de bf
       0.93378645 -0.36033723 -0.103603326 -1.7403818
000030 71 08 9a 3f c0 82 52 3f a9 8d 8f 3f 98 87 de 3c
       1.2033826 0.8223076 1.1215106 0.027164266
000040 22 6f 21 3f 52 5b f9 bd 25 5b 0b c0 e4 fc ec 3d
       0.630602 -0.12175621 -2.177438 0.115716726
000050 44 07 df bf ac 9b 7f bf 3f d8 86 3f 2e 05 42 be
       -1.7424092 -0.9984691 1.0534743 -0.18947288
000060 e1 a4 af be 39 3b 6d 3f 0d f3 12 40 03 e8 f9 be
       -0.3430548 0.9266849 2.2960846 -0.48809823
000070 51 ec 45 bf cd 61 c2 3e d1 34 ac 3e db e8 73 bf
       -0.77313715 0.3796524 0.33634046 -0.95277184
000080 97 a0 5b be 12 97 9b be 41 4d 4c 3e aa 89 a0 bf
       -0.21447979 -0.30388695 0.19951345 -1.2542012
000090 ca 60 01 be 27 8d 39 3f e1 ee 0e bf b8 5e 5b 3f
       -0.12634578 0.72481006 -0.5583325 0.85691404
0000a0 ae dc f0 3b b2 b1 5a be af 54 0e be ca 3c be bf
       0.007350526 -0.21356848 -0.13899492 -1.4862301
0000b0 49 e5 60 be 0e 42 1f be 0e fc 03 3f 34 e6 72 bf
       -0.21962465 -0.15552542 0.5155648 -0.9488251
0000c0 9e 50 c0 3e fa 6b 7c 3f 14 69 06 40 57 e4 ad 3f
       0.37561506 0.9860226 2.1001635 1.3585309
0000d0 a6 57 e6 be 6a 4d 33 3f ab 1c 43 3f ee 05 a8 be
       -0.44988745 0.7004 0.7621562 -0.32817024
0000e0 8f cc 4c bf 10 11 b4 bf 86 7a ac 3f 01 7b 79 3f
       -0.7999963 -1.4067707 1.3474891 0.97453314
0000f0 1f 5b 75 be 9f d1 71 bf 48 14 bc be 99 85 fb 3f
       -0.23960541 -0.9446048 -0.36734223 1.9650146
000100 37 6f dd 3f 3b 69 f0 3f 02 2a ed 3e f0 5c 1b 3f
       1.7299565 1.8782114 0.46321112 0.60688686
000110 b8 62 ac bf 56 f3 89 3e 77 0b 4c 3e 42 d9 28 bd
       -1.3467627 0.26943463 0.19926248 -0.04122282
000120 24 17 db 3e 92 53 67 bf b9 de e0 3f 23 fe 60 bf
       0.42791092 -0.90361893 1.756797 -0.8788778
000130 98 b3 06 3f 30 6b 54 3f 79 54 c1 be 96 f4 f3 3e
       0.5261779 0.82976055 -0.3775976 0.47647542
000140 56 3e d6 3e b6 02 9e 3f ad 0e 08 3e ca 7d 29 3f
       0.41844434 1.2344577 0.13286848 0.66207564
000150 bf f4 d8 bb 8c d4 5c bf 79 34 5b bf 10 64 80 3f
       -0.006620973 -0.8626182 -0.8562694 1.0030537
000160 8c cd 54 3f 21 8f 8c bd bf 3a 04 3f 48 c3 17 bd
       0.8312614 -0.06863237 0.5165214 -0.03705147
000170 94 e4 08 bf a6 30 a4 3f bd 04 5b 3f 9e 8d 83 3f
       -0.5347378 1.2827346 0.85554105 1.0277593
000180 9e 99 b3 3f 14 4b 5f be 94 e4 51 bf 66 41 06 40
       1.4031255 -0.21805984 -0.8198941 2.0977416
000190 38 35 0e c0 ca 69 8c bf 6c 82 c7 3d 8e d2 dd be
       -2.2219982 -1.0969784 0.09741673 -0.43324703
0001a0 9e 10 25 bf 6e b9 16 40 94 4a 2e 3f c5 d1 e2 bf
       -0.6447848 2.3550677 0.6808255 -1.7720267
0001b0 3c 54 70 3d 84 a2 5b be 1b 00 a3 3e ba 6f 34 bf
       0.058674082 -0.21448714 0.31836018 -0.7048298
0001c0 6d 4f 4a be 2d 4d a1 bf ae 7f 1b bf de cc 34 3f
       -0.19756861 -1.2601677 -0.607417 0.706251
0001d0 2a 32 b2 bc 15 84 16 bf 8b 5e 87 be 0d bc 05 3f
       -0.021752436 -0.5879529 -0.26439318 0.5224007
0001e0 5d 34 3e bf 5f 71 06 3f b3 05 01 40 07 78 49 3f
       -0.7429865 0.5251674 2.0159729 0.7869877
0001f0 99 d8 3a 3f 43 bc 87 bf cb e1 1c 3f 24 e6 bc be
       0.7298675 -1.0604328 0.6128203 -0.36894333

encoder.embedding.grapes_embedding.weight f4 [119, 32]
000000 ec 29 63 bf 44 68 7c 3f 23 f4 86 bd 19 f3 0a c0
       -0.8873584 0.98596597 -0.06589534 -2.1710875
000010 4a ff b0 3f 3b e0 27 3e cd 6a 80 3f 90 90 40 3f
       1.3827908 0.16394131 1.0032593 0.75220585
000020 2b 1b 93 be 98 8e 3e 3f 48 66 48 3f c2 57 84 bf
       -0.28731665 0.7443633 0.7828107 -1.0339282
000030 bf 5f b5 bf 82 7d bb 3f aa 67 b8 be d1 d2 8d 3f
       -1.4169844 1.4647677 -0.3601659 1.1079961
000040 ea 8e 0b c0 f2 a1 18 bf 52 c5 6d bf 9b 00 8c bf
       -2.1805978 -0.5962211 -0.9287921 -1.0937685
000050 95 96 39 3f dc fb 19 3e 36 8d 82 3f 65 d8 71 3f
       0.72495395 0.15037483 1.0199344 0.94470817
000060 18 4f 26 be d6 fe d9 3e c4 dc 6f 3f 81 d2 34 3e
       -0.1624111 0.42577237 0.93696237 0.17658426
000070 fa 2e a6 3e 80 64 95 bf 68 f5 d2 bc 14 b0 5b bf
       0.32457715 -1.1671295 -0.025751784 -0.8581555
000080 67 5c 40 3f 22 93 92 bf 02 d6 0f 3e 40 27 80 3f
       0.75140995 -1.1451151 0.14046481 1.0011978
000090 96 f9 58 3d 36 69 c5 bc 5b 42 c3 3f 40 85 2a bf
       0.0529724 -0.02409802 1.5254625 -0.66609573
0000a0 90 be d6 3e 89 a8 4e 3f 3b 10 b4 be c2 5b cf bf
       0.41942263 0.80725914 -0.35168633 -1.6199877
0000b0 f7 fe 5c bf 7a 59 c7 3f bb 2f 70 3f 30 97 45 bf
       -0.86326545 1.5574181 0.9382283 -0.7718382
0000c0 87 9b 15 be a6 aa 66 bf 00 df 00 40 03 8d 67 bf
       -0.1461011 -0.9010414 2.0136108 -0.9044954
0000d0 00 e8 1f 3f 84 5d 9d 3e 27 03 69 3f d3 e8 1b 40
       0.6246338 0.3073541 0.91020435 2.4360855
0000e0 f7 89 6a 3e 77 90 88 bb b6 76 8c 3f 83 0f 32 3f
       0.22904192 -0.004167612 1.0973728 0.6955492
0000f0 8d f5 29 bf 43 8c 0e 3f f1 dc 5c 3f d2 a2 05 40
       -0.66390306 0.5568277 0.8627463 2.0880628
000100 7a bc 99 3f d4 44 90 be c1 06 07 40 f8 c2 27 40
       1.2010643 -0.28177512 2.1097872 2.621275
000110 a7 09 f9 be 04 5f 46 3f a3 77 52 be 06 b4 93 3e
       -0.48640177 0.7748873 -0.2055345 0.28848284
000120 04 6b 41 3f 0c aa 10 40 17 e5 08 be 8b 85 8d bf
       0.7555392 2.2603788 -0.13368641 -1.1056379
000130 a9 06 87 bf 63 c2 be bd bb ac a2 be 31 5b 1a bf
       -1.0548908 -0.0931442 -0.31772408 -0.602954
000140 b0 5f 7b bd 82 e7 cf 3f 32 b2 c5 bf 7a 7b 0f c0
       -0.06137055 1.6242526 -1.5445006 -2.2419114
000150 ff 9d 82 be fb a8 af be dc 14 2d be 1d b6 b8 bf
       -0.25511166 -0.3430861 -0.16902488 -1.4430577
000160 15 57 e8 3e ba bc ff 3e 68 00 c4 be 09 0d fc bf
       0.45378938 0.49948674 -0.3828156 -1.9691478
000170 c1 8b 12 c0 a6 77 fe 3f c6 b0 cd bf 88 48 d3 3e
       -2.28978 1.9880264 -1.6069572 0.41266274
000180 aa 45 13 bf 52 b8 60 bf 2d 97 f7 3e b9 2a fb 3f
       -0.57528174 -0.8778125 0.48357525 1.9622413
000190 63 b3 f9 3e d7 21 66 3f a4 ff a4 bf d0 7d 56 3e
       0.48769674 0.89895386 -1.2890515 0.20946431
0001a0 11 5f 30 3e 15 12 aa bf b3 ef c1 3e 31 a3 16 bf
       0.17223765 -1.3286768 0.37878188 -0.5884276
0001b0 41 09 07 3f 4f b8 68 bf 87 3e ae 3f ce 7c e6 3d
       0.52748495 -0.9090623 1.3612832 0.11254273
0001c0 21 b5 b8 bf b7 44 98 bf 0b fe 0a 3f d3 3e 99 3f
       -1.4430276 -1.189597 0.5429389 1.1972297
0001d0 67 b0 8f 3f 82 78 9a bf 5b 48 9d 3c bc 5d 56 3f
       1.1225709 -1.2068026 0.01919954 0.8373678
0001e0 9d 0c b0 3f a9 24 33 bf 76 ee db 3f 90 ee b5 bd
       1.3753849 -0.69977814 1.7182148 -0.08883393
0001f0 19 4d c0 3e 88 8a 57 bf 84 e8 33 be b2 42 d4 3e
       0.3755882 -0.84195757 -0.17569166 0.41457134
000200 6d fd bc be 63 9a 8e bf 26 10 67 be 67 49 22 bf
       -0.369121 -1.1140865 -0.22564754 -0.63393253
000210 40 62 c8 3f 6f 78 ae bf 6f df 39 3f 1d f7 22 be
       1.5654984 -1.3630503 0.7260656 -0.15914579
000220 d5 dc 7a 3f 36 8b e0 3e 30 db 15 bf 37 02 0e 40
       0.9799321 0.4385621 -0.5853758 2.2188852
000230 9c 8a 51 3e fb e6 33 3f 6d a9 f7 3d b3 42 0a 3e
       0.20463032 0.70274323 0.12092862 0.13502006
000240 d4 95 e9 3c 0c 77 4f 3d 4c 34 45 bf 86 2b d7 3d
       0.028513826 0.05065064 -0.77032924 0.10506348
000250 4c be c5 bf d4 a1 06 bf 95 ad cf bf 3b 82 5b 3e
       -1.5448699 -0.5259068 -1.6224848 0.21436398
000260 0a a1 6e 3f b3 9e b5 3f 5e ba c7 3f d8 22 16 c0
       0.93214476 1.4189056 1.560375 -2.3458767
000270 6f 70 36 3f b1 34 2a 3e b0 7d 20 c0 59 d9 99 bf
       0.7126531 0.16621663 -2.5076714 -1.2019454
000280 74 31 3a bf df 7d 71 be 84 50 fa 3f 20 81 80 bf
       -0.7273171 -0.23583172 1.9555821 -1.0039406
000290 8e 7f b4 bf 26 31 8c be d0 f4 c0 3e 12 21 9d 3f
       -1.4101427 -0.27381247 0.37686777 1.2275717
0002a0 41 ca 46 3e f8 0e 42 be 40 d9 33 bf 83 a4 00 c0
       0.19413091 -0.18951023 -0.7025337 -2.010041
0002b0 76 e5 af bf 45 16 5a bf d3 5c 86 3f 64 18 84 3f
       -1.3741901 -0.8519023 1.0497078 1.0319943
0002c0 ad 2a a7 3f 45 3f 3c bf 00 8c f2 be 4a 11 b7 bf
       1.3059899 -0.7353404 -0.47372437 -1.4302151
0002d0 4a ec 0f bf 05 ac 5d bf 41 2d 72 bf 00 09 96 bf
       -0.56219923 -0.86590606 -0.946003 -1.1721497
0002e0 5c b3 9d bd bf 66 31 3f b0 98 df be 29 52 00 bd
       -0.07700226 0.69297403 -0.4367118 -0.031328354
0002f0 a7 bf 27 3e bf 22 02 bf 96 55 c1 3f 44 3a b9 bd
       0.16381703 -0.5083427 1.5104244 -0.090443164
000300 e3 40 25 bf f2 8f 3c bf 01 42 89 bd 36 ff 05 40
       -0.64552134 -0.73657143 -0.06702042 2.0937018
000310 bc 23 2c 3f 7d 66 23 3e e9 9f 9b be 80 06 6c bf
       0.67242026 0.15957065 -0.3039544 -0.9219742
000320 f0 37 8f 3e a3 a8 63 be b2 98 4b 3f e3 af 0a bf
       0.27972364 -0.22232299 0.7952987 -0.5417463
000330 d5 67 35 bd c9 ff 77 bf a2 6d 0b c0 70 d2 09 40
       -0.044288475 -0.9687467 -2.1785665 2.153469
000340 7a e1 e5 bd ec cb 11 3f 20 7a 1d c0 1e e5 2f be
       -0.11224647 0.56951785 -2.460579 -0.17177245
000350 46 0a b4 bf 15 5f 02 3e e8 34 95 be 39 8a b0 3e
       -1.4065635 0.12731583 -0.29141927 0.34480456
000360 c0 d5 7e 3f bd ab 6b 3f 30 49 e2 bf 2d 99 4e 3f
       0.99544907 0.92058927 -1.7678585 0.8070248
000370 6a f5 b5 3e a1 31 0e 3e cc aa b5 3f fa 08 85 3d
       0.355388 0.1388612 1.4192748 0.06495853
000380 ac 6a 13 40 cb f1 20 bf 21 cb 99 bf 73 c6 3e bd
       2.3033857 -0.62868947 -1.2015115 -0.046575975
000390 95 fa 41 bf 6d 74 4c 3f a1 85 ca 3f 90 c8 77 3f
       -0.7577298 0.7986515 1.582203 0.9679041
0003a0 f2 de 0d 3f 81 b0 19 bf b7 ab 3c bd 42 75 13 bf
       0.5541831 -0.6003495 -0.046062198 -0.57600796
0003b0 cf 27 fd bf a1 41 a5 be d4 46 bf be a5 1f af bc
       -1.9777774 -0.32276633 -0.37358725 -0.021377394
0003c0 5d 62 6d bf 48 40 cd bf 7d a1 bc bf 10 bf f1 3f
       -0.92728215 -1.6035242 -1.4736782 1.8886433
0003d0 e7 6a a6 be 8d 34 1f 3f 82 c0 15 40 a5 30 0b bf
       -0.32503435 0.6218956 2.3398747 -0.543711
0003e0 d4 3f 6d bf 0a 59 9e bf e3 0e 97 3f 92 7e 7f be
       -0.9267552 -1.2370923 1.1801418 -0.24950626
0003f0 a7 b2 95 bf 3e 84 a6 bf 0e 08 b7 3f f8 6a be 3f
       -1.1695145 -1.3009107 1.4299333 1.4876394

encoder.embedding.aroma_embedding.weight f4 [13, 32]
000000 0d 36 99 bf 72 e2 b4 bf 84 af c7 3f 23 f7 93 bf
       -1.196962 -1.4131606 1.5600438 -1.1559795
000010 28 10 15 bf 45 d3 22 bf 68 9d 2c bf ff 3d 9d bf
       -0.5822778 -0.6360362 -0.6742768 -1.2284545
000020 46 ee 9e be fa 4c 4a bf 37 e3 29 bf 3a bf f3 3e
       -0.31041163 -0.79023707 -0.6636233 0.47606832
000030 09 5c 24 bf d0 05 30 be 14 39 e7 be 8b 15 13 bf
       -0.64202935 -0.17189717 -0.45160735 -0.57454747
000040 84 c1 15 3f 72 d2 06 be c0 88 02 3d 59 cc 61 bf
       0.58498406 -0.13166216 0.031868696 -0.88202435
000050 48 59 a0 bf be 02 95 be 29 5a ab 3e b9 c1 24 bf
       -1.2527246 -0.29103655 0.33467224 -0.643581
000060 67 4e 93 3e f4 ab 07 40 9f e6 78 3f 7e a6 1d c0
       0.28770754 2.1198702 0.972269 -2.4632869
000070 fb 29 08 bf d2 fd d8 bf 5a ff bf 3e 23 e3 db 3e
       -0.5318906 -1.695246 0.37499505 0.4294673
000080 85 82 77 be 19 96 4b 3e dc 92 aa bf 29 d6 2e 40
       -0.24170883 0.19881476 -1.3326068 2.7318213
000090 6a d3 f3 bf 96 5c f7 3f eb 47 04 bf eb dd c2 bf
       -1.9048893 1.932513 -0.5167224 -1.5223974
0000a0 c4 36 e6 bb 2f ef 72 3f f7 3a 20 bf ff e6 6d be
       -0.0070255715 0.94896215 -0.62589973 -0.2323265
0000b0 1f 89 e3 be 14 27 bf bd 00 29 48 3f c6 5d 99 3f
       -0.44440553 -0.093336254 0.7818756 1.1981742
0000c0 1f b1 8d 3e 39 1e 3e bf a8 e1 df bf 11 35 0f c0
       0.27674195 -0.74264866 -1.749074 -2.237614
0000d0 32 8c 18 c0 c2 cf 23 c0 15 95 1a 3b cf 64 f9 3e
       -2.3835568 -2.5595555 0.0023587395 0.48709723
0000e0 e5 dd 0a 3f 27 c5 1f bf 36 cc ee be 11 dc 80 3f
       0.54244834 -0.62410206 -0.46640176 1.0067159
0000f0 f4 4c f1 3f 19 ab a2 3f e7 1f 87 bf e2 a3 b0 3f
       1.8851609 1.2708465 -1.0556611 1.3800013
000100 1c b9 a4 3f b4 61 3e bf 8b 25 80 3e 24 5a ae be
       1.2868991 -0.74367833 0.25028643 -0.34053147
000110 4b da c6 3d 19 82 43 3f 0f 44 ad be ce 6e bf be
       0.09709605 0.7637039 -0.33840987 -0.37389225
000120 fa 11 b9 3f 5e ac b0 3e 70 0d a7 bc e5 1b af 3e
       1.4458611 0.34506506 -0.02039215 0.3420097
000130 8e 8a 40 3e 72 cb 80 bd 8a 12 1d bf 3f b2 ba 3e
       0.18802854 -0.06288804 -0.61356413 0.36464116
000140 af a0 e0 bc d1 02 b7 be a6 93 ce be 3d 7f 8a 3f
       -0.02742037 -0.35744336 -0.40347022 1.082008
000150 77 92 ed 3e dd 8a 88 bf c3 c5 05 c0 9b 0d 43 3d
       0.46400806 -1.0667378 -2.0901954 0.047620397
000160 a8 6c 8b be a9 78 9b bf c1 36 08 c0 dc e2 6c be
       -0.27231336 -1.2146198 -2.128342 -0.23133415
000170 03 bc 96 3f 65 40 07 3e 5f b5 aa bf 69 13 e7 3f
       1.1776127 0.13208158 -1.33366 1.8052799
000180 44 31 cd be 80 74 bb bd 88 34 94 bf 0e 1c 86 3d
       -0.4007665 -0.0915308 -1.1578531 0.0654832
000190 ec 9f 18 bf 74 b7 c4 be 84 17 03 3f c2 9f bf bd
       -0.5961902 -0.38421214 0.51207757 -0.09356643
0001a0 5f 1c a4 bd fa 0b 57 3e 17 94 bd 3e 22 42 1a bf
       -0.08013224 0.21000662 0.37027046 -0.6025716
0001b0 61 83 67 be 51 44 72 be 72 04 ef bf dd 3a 32 bf
       -0.22608711 -0.23658873 -1.8673232 -0.6962107
0001c0 fe 42 2b 3c aa be aa 3f 7b 19 e4 bf 34 19 57 3f
       0.010452984 1.3339436 -1.7820276 0.8402283
0001d0 88 7a d4 bf 79 e3 92 bf f1 cd 81 be a9 03 ac bf
       -1.6599894 -1.1475669 -0.25352433 -1.3438617
0001e0 35 89 ce be e0 49 27 bf ad 40 93 3e e6 a3 26 3f
       -0.40339056 -0.653471 0.2876028 0.6509384
0001f0 de a4 3d 3f af b2 4c bf 8e a7 35 3f f8 98 3f 3e
       0.7407969 -0.7996015 0.70958793 0.18710697
000200 17 5b 13 40 a0 b9 ca 3f 82 42 2d bf 6c 86 3f 3e
       2.3024347 1.5837898 -0.6767961 0.18703622
000210 66 3a c8 be 0b 9d 85 3e 60 45 64 3f c0 7d cc be
       -0.39107054 0.26096377 0.8916836 -0.3993969
000220 a7 cf da bd 89 76 dc bf 72 fe a1 bd 34 e7 a0 3f
       -0.10684138 -1.7223674 -0.0790986 1.2570558
000230 95 1a 89 3e f7 ab 6e bf 16 11 70 bd 18 fc 1c 3f
       0.26778093 -0.9323115 -0.058610044 0.61322165
000240 52 8a 91 bf ad d7 e7 bf 4e b2 e5 be d5 71 58 3e
       -1.1370337 -1.8112694 -0.44862598 0.21137173
000250 4e 6d 2b 3f eb c2 a7 3f 9b 3f e8 bd 03 80 3f 3f
       0.6696366 1.3106359 -0.11340257 0.74804705
000260 5c 6f cd be fa b4 f9 bf a4 b9 51 3f 93 48 15 40
       -0.40124023 -1.9508355 0.8192389 2.3325546
000270 d1 1d 0f bf 69 11 8d 3f 9b ba cc 3d 2f 91 c1 3e
       -0.5590487 1.1020938 0.0999653 0.3780608
000280 24 3d b6 3e b5 26 96 3f 56 21 9c bf 88 0d af bf
       0.35593522 1.1730562 -1.2197673 -1.3676004
000290 30 90 cd 3e 28 e8 c7 be 1f 51 fd 3e 8b b9 9d 3f
       0.4014907 -0.3904431 0.49475953 1.2322248
0002a0 e7 3c 9f bf 34 f3 56 bf 4b 34 34 3f f6 c8 b8 bc
       -1.2440461 -0.8396485 0.7039229 -0.022556763
0002b0 cb 9c e2 bf a1 f2 6f 3f 4c 1d 15 40 68 e2 63 bf
       -1.77041 0.937296 2.3299131 -0.89017344
0002c0 5e e5 f8 bf e6 25 c4 3d bf 63 34 3f cf 89 79 bf
       -1.9444997 0.09577541 0.704647 -0.97475904
0002d0 bf cb 78 bf 73 91 8b 3f 76 49 82 3e b2 3a 97 3f
       -0.9718589 1.0903763 0.2544667 1.1814787
0002e0 0b 11 75 bf ee f4 59 bf 17 1b 9c bf af 9e c2 3c
       -0.9572913 -0.8513936 -1.2195767 0.023757307
0002f0 dc f0 09 bf ef 8a 13 3f 4a b4 4c 3f 65 45 99 3f
       -0.5388315 0.5763387 0.799626 1.1974303
000300 d9 82 d2 3d 53 87 73 3f 45 b6 15 3e 8e 0a 07 bf
       0.102788635 0.95128363 0.14620312 -0.5275048
000310 d6 81 04 bf 18 2e 84 bf b5 0e 6c bf e4 d3 02 3e
       -0.51760614 -1.0326567 -0.9220994 0.12776142
000320 0f db 04 3f 48 5a e2 3e c1 29 ee be 3e c3 ad 3f
       0.51896757 0.44209504 -0.4651623 1.3575208
000330 80 55 e8 be f9 54 47 3f ff 85 0f 3f dc 6e 04 3f
       -0.4537773 0.77864033 0.56063837 0.5173166
000340 ca 93 fc 3d db e3 f1 3e d7 31 7b 3f 87 16 84 be
       0.12332876 0.47244152 0.98122925 -0.25798437
000350 e4 99 fb 3e ed ca 9c bf 0b e8 51 bf ee 2a 41 be
       0.49140847 -1.2249428 -0.81994694 -0.18864033
000360 fd e8 ce 3f 0e e0 00 c0 41 9f c9 bf e9 b3 13 bf
       1.6164852 -2.0136752 -1.5751725 -0.57696396
000370 53 5a e3 bf cb b1 d7 be 80 28 b5 be 44 a5 90 3d
       -1.776194 -0.42127833 -0.35382462 0.07062772
000380 58 16 53 be 49 88 8a 3f 83 61 d1 3e 61 c2 17 be
       -0.20613992 1.0822841 0.40894708 -0.14820243
000390 d2 ce 1c bf cf 9a 3c bf a8 8d b7 bf f3 d0 96 3e
       -0.6125308 -0.7367372 -1.4340105 0.2945629
0003a0 6e a1 05 bd 2e 61 38 bc cf cc b1 3e e4 78 0a 3f
       -0.032624654 -0.011253638 0.3472657 0.54090714
0003b0 e2 1f 1f 3f c3 fa bc bf df a0 65 3f 6c 04 a4 3f
       0.62158024 -1.4764026 0.89698595 1.281385
0003c0 46 56 d2 bf a8 46 3d 3f a1 7f af 3f 60 d4 63 bf
       -1.6432579 0.7393594 1.3710824 -0.88995934
0003d0 3e 47 b2 bf 7e 32 02 bf 2f 43 b3 3f b0 fa f0 3e
       -1.3927991 -0.50858295 1.4004878 0.4706626
0003e0 54 cb 12 be 45 b6 85 be a5 19 92 3f 74 f5 83 3f
       -0.14335376 -0.26115623 1.1414076 1.0309281
0003f0 9b 9a b1 3f 0b f4 c6 3f a2 15 91 be f4 6c 65 be
       1.3875307 1.5543226 -0.28336817 -0.22404844

encoder.key_fc.weight f4 [256, 32]
000000 ec 0c 26 be cd 79 9f bd e8 84 93 bd ec 70 26 be
       -0.16215867 -0.077869035 -0.07203084 -0.16254014
000010 84 94 c3 3d cd 15 22 3e 04 10 1b 3d 84 de 45 3d
       0.095498115 0.15828629 0.03785707 0.04830791
000020 68 24 41 bd c9 99 10 be fd cb 89 3d e9 7d 22 3e
       -0.04715386 -0.14121164 0.06728361 0.15868343
000030 b9 29 2b 3d 2a f9 9b 3b 7f de 14 bd b5 bd bc 3d
       0.041787837 0.0047599273 -0.036345 0.09215871
000040 46 45 1b 3d a1 18 25 bb 86 e3 30 be 00 3b d1 3b
       0.03790786 -0.0025191682 -0.17274293 0.006385207
000050 b9 01 08 3d c0 2b a8 3d 1a 20 29 3a 0d 17 0d 3e
       0.033204768 0.0821147 0.0006451622 0.13778324
000060 64 95 28 3e 99 31 c9 3d 82 88 57 bd 8b a2 df bd
       0.16463238 0.09823913 -0.05262042 -0.109196745
000070 07 19 9f bd 95 8d 35 bd fa bf 0a be a0 25 d6 bd
       -0.077684455 -0.044324476 -0.13549796 -0.10456395
000080 73 56 1f 3e e6 f1 94 bd 13 03 d5 3d 6f 41 f7 3d
       0.15560322 -0.07272701 0.10400977 0.12073027
000090 9b 5c 2f be 0b 24 11 bd fd e5 c4 bd f2 17 e1 bd
       -0.1712517 -0.035434764 -0.09614179 -0.10990895
0000a0 c1 e1 3f 3d 93 39 c0 3d 35 e1 27 be f3 f8 0e be
       0.046846155 0.093859814 -0.16394503 -0.13962154
0000b0 40 cd 24 3e 7c 74 f3 bc 62 0e a4 3d 38 7c 2a 3e
       0.16093922 -0.02971863 0.08010556 0.16648948
0000c0 6e c5 45 bd 8f 66 13 3e 2b 0f f7 3c 6a cd 06 be
       -0.048283987 0.14394592 0.0301586 -0.13164297
0000d0 f7 88 8e bd 01 91 0f bc 6b 4b 35 3d 93 f5 a4 3d
       -0.06959718 -0.008762599 0.044261377 0.08054652
0000e0 44 a5 90 bd da 2a 0f 3e 29 8b e8 bd d5 f0 d0 bd
       -0.07062772 0.1398119 -0.11354668 -0.10202185
0000f0 77 9e 86 bd d8 b5 16 be 7e e2 5b bd f4 47 fc bd
       -0.065731935 -0.14717805 -0.053682797 -0.123184115
000100 eb 37 09 3e c6 c1 25 be ed 51 4a 3e 31 97 b6 3d
       0.13400237 -0.161872 0.19757815 0.08915556
000110 c6 60 3e bd af 68 69 3d c5 93 d3 3d 60 04 3e 3e
       -0.04647901 0.0569846 0.10330919 0.18556356
000120 14 d5 21 bb ae c0 b6 bd 6e 90 b5 bd bb 2f b0 bc
       -0.0024693655 -0.089234695 -0.088654384 -0.021507135
000130 3c 8d ab 3d a2 02 16 bd 3a 76 7b 3d 48 d3 4c 3e
       0.08376548 -0.036623605 0.061392047 0.20002472
000140 68 19 99 3d 34 ed 4a be a2 8f fc 3d e2 f6 d9 3c
       0.07475549 -0.19817048 0.12332083 0.02660698
000150 6a 26 05 be e2 40 e7 3d 53 5f a4 3d d7 b5 a5 3c
       -0.13002935 0.11291672 0.08025994 0.02022831
000160 17 0e d9 bd c2 88 fb 3c 88 73 69 bd 7b 32 02 3c
       -0.105983905 0.03070486 -0.056994945 0.007946606
000170 c4 b3 e3 bc dc b9 6d bd 47 eb 30 3e c2 3f 3d 3d
       -0.02779568 -0.058038577 0.17277251 0.046203382
000180 ff 29 d5 bd 5e 7b 91 3d cd 8b d3 3d 0a 6f cd bd
       -0.10408401 0.071036085 0.10329399 -0.10030945
000190 56 31 86 3c 9d ed dd 3d 35 f7 ce bd 63 39 a5 3d
       0.016380947 0.10836337 -0.10105745 0.08067586
0001a0 af f0 23 3d d9 cf cd bd 5e 49 ba bc 00 05 0a 3b
       0.040024456 -0.100494094 -0.022740062 0.002106011
0001b0 b8 4b c7 bc 76 fb b8 3d 1e 1d 0e 3e 10 76 2c 3e
       -0.024328098 0.09032337 0.13878295 0.16841912
0001c0 37 70 2e 3e d3 2e 8b bd 7e 24 ac bd 62 c7 24 bd
       0.17034994 -0.067960404 -0.08405398 -0.04022921
0001d0 32 9e 8b 3d da 5e eb bc 22 6e 10 be c2 6e 1b 3e
       0.06817283 -0.028731752 -0.14104512 0.1517897
0001e0 66 d4 77 3d 8e 58 f0 3d 03 a4 5d 3d 27 cf 98 bc
       0.060505293 0.117356405 0.054111492 -0.018653465
0001f0 fe ff 38 be 2c 1f 94 bd 93 61 89 bd 7a c8 fc 3c
       -0.18066403 -0.07232508 -0.06708064 0.030857313
000200 e2 e9 c4 bc 35 fe f0 3d 00 be 2e be ff 8a 4d 3d
       -0.024037305 0.11767236 -0.17064667 0.050181385
000210 44 5e a5 3d a6 10 30 3e 8e 11 fc 3d 99 58 91 3d
       0.0807462 0.17193851 0.12308036 0.07096977
000220 ba cd 20 3e a7 88 17 bd 44 a1 fd 3c 50 c7 ef 3d
       0.15703478 -0.036995556 0.030960687 0.11707938
000230 e6 2e ba 3d a2 50 b7 bd 35 34 7e bd 8d ed 0d 3e
       0.090909764 -0.08950926 -0.062061507 0.1386015
000240 09 c6 09 3b 12 79 9f bd e7 68 b0 bd 7a d9 a7 bd
       0.002102258 -0.07786764 -0.086137585 -0.08195777
000250 23 84 de 3d a2 6f 0a be 23 d6 b3 bd 9c e5 d6 bc
       0.10865047 -0.13519147 -0.08781078 -0.026232533
000260 b1 d7 b8 bd 93 5d 31 3d fc 74 85 bd 69 5d 1c 3e
       -0.09025515 0.04330213 -0.065164536 0.15270008
000270 c0 02 58 bd 51 c1 20 3d 65 84 ea bd c2 97 69 bd
       -0.052736998 0.03924686 -0.114510335 -0.057029493
000280 4c 41 2c bd 4a 75 2a 3e a9 63 c8 3d 35 e2 c6 3d
       -0.04205446 0.16646305 0.09784634 0.09711114
000290 ac c3 88 3d c7 65 14 3d 84 f8 17 3e 60 cd 0d be
       0.066779464 0.036229875 0.14840895 -0.13847876
0002a0 4e 9f c7 3d 9b cd d6 3d f7 92 79 bd 0c 03 00 3e
       0.09747182 0.10488435 -0.060931172 0.12501162
0002b0 f0 1a 13 3e c3 6c 33 bd 42 c7 3b 3c 3a 61 eb bd
       0.14365745 -0.043804895 0.011461081 -0.11493154
0002c0 11 84 a2 bd ce 30 13 be 1a ec 05 bc 0f db 0b 3b
       -0.07935346 -0.14374086 -0.008173967 0.0021340286
0002d0 22 a2 93 bd ca 12 6b bc 9a 18 49 bd 32 7f fd bd
       -0.07208659 -0.014347741 -0.049095728 -0.12377776
0002e0 dd e7 15 bc ee 77 9c bb 2f b1 41 3d c7 79 5e 3d
       -0.009149519 -0.004775039 0.047288116 0.054315355
0002f0 08 c1 c7 bd 57 91 d6 3d da 8e 90 3c e0 d8 fb bd
       -0.09753615 0.1047694 0.017646242 -0.12297225
000300 f0 79 20 be f1 5e 04 3e d1 c4 ad 3d 64 cc 4a 3d
       -0.15671515 0.12926842 0.084848054 0.04951133
000310 71 7c 5c be 77 33 88 bc 29 20 c1 3d d2 00 00 3e
       -0.21531846 -0.016626103 0.09429962 0.12500313
000320 c1 77 df 3d 2c 61 38 3e 63 26 d8 bd 4d 12 35 3e
       0.10911513 0.18005818 -0.10554197 0.17682762
000330 7f 71 54 3e 29 96 85 bd f6 a1 81 bd 64 ce f3 bd
       0.2074642 -0.065227814 -0.0632972 -0.119046
000340 c7 3e 0a bd 64 5a 8c bc 3d 3c 66 be 39 22 a9 bb
       -0.033751275 -0.017132945 -0.22483917 -0.0051615504
000350 b0 25 e8 3d 56 9a 02 3d e4 a3 35 bd 4b cc 0a 3d
       0.11335313 0.031885467 -0.04434575 0.033886235
000360 1d 58 0f bc 91 7b 31 3d f7 88 a8 3b 24 8a 4f 3e
       -0.008749035 0.043330733 0.0051432806 0.2026754
000370 c1 9e c1 bd a3 7f 7a bb be 5a 9f 3c 4e 3a 1c 3d
       -0.09454108 -0.003822305 0.019452449 0.03814154
000380 74 81 13 be 97 2d 80 3d fc ab e0 bd ff 79 26 3e
       -0.14404851 0.062586956 -0.109703034 0.16257475
000390 9e 1a 7d bd 40 84 e6 3c 36 5c 59 bc 9f c5 a6 bd
       -0.061792962 0.028139234 -0.013266614 -0.08143162
0003a0 4d 69 91 3d 21 1e 32 bd c1 ea 0c bd 95 c1 e4 3d
       0.07100163 -0.043485764 -0.034403566 0.11169735
0003b0 ce 4b df bd 14 bf da 3d 39 7d f3 bc e1 c6 45 bd
       -0.109031305 0.106809765 -0.029722797 -0.04828537
0003c0 45 d3 ff ba 96 b5 79 bc f9 49 cf bd ec 63 9b bd
       -0.0019517919 -0.015241047 -0.10121531 -0.07587418
0003d0 25 65 ab 3d 1a 7c cf 3b ad 33 fa 3d 93 fc 9e 3b
       0.08368901 0.0063319327 0.122168876 0.0048518865
0003e0 7e 6d 21 3e 14 7f 94 3d 58 ce 23 3e bb 12 94 3d
       0.15764424 0.07250801 0.15996683 0.07230135
0003f0 19 6f 0f 3d b8 28 9a bd ab 41 13 3e 3c f3 10 3e
       0.03501806 -0.07527298 0.14380519 0.14155287

encoder.key_fc.bias f4 [256]
000000 bd 49 0c be ec ad 0e 3e e0 d0 65 3d 06 9d ca bd
       -0.13700004 0.13933533 0.0561074 -0.09893231
000010 a5 2d 34 3e de 44 bd bb 1d 84 09 3e 08 cb a8 bd
       0.17595537 -0.005776032 0.13429303 -0.0824185
000020 ec 34 16 3e 24 32 89 3d ae 53 29 3e a5 4b 10 3d
       0.14668626 0.06699017 0.16535828 0.03522839
000030 68 94 15 3e bf 67 1c 3d 4e 22 9c bd 98 40 91 bd
       0.14607394 0.038184877 -0.076237306 -0.070923984
000040 74 60 64 3c 65 65 14 be 25 2a 89 bd 8c 4b e8 bd
       0.013939012 -0.14491804 -0.066974916 -0.113425344
000050 9d 4b 4d 3d 44 f7 86 3d de 74 c4 3c 23 8b ff bd
       0.05012094 0.06590131 0.023981508 -0.1247771
000060 df 6d e5 3d 41 11 2e 3e 86 6b 01 be fc 57 24 bd
       0.11202597 0.1699877 -0.12638673 -0.04012297
000070 70 ab 17 be 9e ff b8 bd cf ec 01 be 0e 72 2e 3d
       -0.14811492 -0.0903313 -0.12687992 0.04258924
000080 10 ae 0b 3d 50 ed 4e 3d 36 05 b6 bd 17 e8 46 bd
       0.034101546 0.050519288 -0.08887713 -0.048561182
000090 73 a0 ff 3c cf d6 97 3d f5 f3 87 bd b4 6a 0b 3e
       0.031204438 0.07414018 -0.06638328 0.13614923
0000a0 9b 61 13 be 0e f2 a8 bd ba 8a dd bd 47 45 21 3e
       -0.14392702 -0.08249293 -0.108174756 0.15749083
0000b0 0b 26 02 3e e4 10 c8 36 4d 0a 1f 3d f7 7c c4 3d
       0.12709825 5.962431e-06 0.038828183 0.09594148
0000c0 0b 15 18 be 31 51 bf bd d4 d7 b7 bd b7 3a 17 be
       -0.14851777 -0.09341658 -0.08976713 -0.14768492
0000d0 f0 61 26 3e d4 dd 1a 3e b4 d6 9f bc 36 45 54 bd
       0.16248298 0.15123683 -0.019511558 -0.051823817
0000e0 b4 5b 21 3e 33 58 b8 bd 11 65 0c be e9 8a 57 bd
       0.15757638 -0.09001198 -0.13710429 -0.05262271
0000f0 7a 18 13 3e a9 22 c6 bd 4f fd 0c 3e 7b 3c aa 3d
       0.14364806 -0.0967458 0.13768505 0.08312317
000100 d7 2f 7b bd 68 fa e6 bc 8b d3 f7 bd ef 46 14 be
       -0.06132492 -0.028195575 -0.121008955 -0.14480184
000110 f0 b7 21 be 9c 5a b8 3c ed 9e 2c 3e 48 01 11 3d
       -0.15792823 0.022504143 0.168575 0.035401613
000120 ec fc 08 bd 90 fc 89 bc 97 0c 2d be db fe 00 be
       -0.03344433 -0.016844064 -0.16899334 -0.1259722
000130 96 ec 87 3d 20 41 4d bd 49 06 e8 bd 60 e2 16 3e
       0.06636922 -0.050110936 -0.11329324 0.14734793
000140 1b 8c 78 bd 36 ed bc 3d 2b 92 a0 bd c5 e4 04 be
       -0.06068049 0.09224932 -0.07840379 -0.12977894
000150 f1 e0 1b 3d 33 ed 15 3e 23 eb 19 3e 80 74 f5 3d
       0.038056318 0.14641266 0.15031104 0.11985111
000160 88 39 2c 3e 48 80 b2 3d 40 75 1f 3d 10 7f 01 be
       0.16818821 0.08715874 0.038930178 -0.12646127
000170 f2 8d 0c be 4b 52 e7 bd 09 d5 88 3d 28 a0 a4 bd
       -0.13726023 -0.11294993 0.06681258 -0.0803836
000180 79 28 3f bd dc 40 ca 3d 63 8c 0c bd 2c e0 1b 3d
       -0.046669457 0.09875652 -0.03431357 0.038055584
000190 8e 2c 0e 3e 6f cd 10 be 71 88 97 bc 27 ad e9 bd
       0.13884184 -0.14140867 -0.018497678 -0.11409979
0001a0 fc 44 4c 3d 24 21 1e 3e fc 16 10 3e ec 01 27 3e
       0.049870476 0.1544233 0.14071268 0.16309327
0001b0 d8 0a 22 3e 23 b7 93 3d 03 4f 00 3e 32 a5 07 3e
       0.15824449 0.07212665 0.1253014 0.13246611
0001c0 65 db 21 bd 8c 47 13 be 05 16 27 bd 7b 8e 2c be
       -0.03951587 -0.14382762 -0.040792484 -0.16851227
0001d0 00 02 f3 bd a0 d9 1a bc 3a 88 95 bd 31 e9 10 3e
       -0.11865616 -0.0094513 -0.07301374 0.14151455
0001e0 cd de c1 bd c4 fa 88 bd 1f 24 34 3c 7a fd 32 be
       -0.09466324 -0.06688455 0.01099494 -0.17479506
0001f0 1e 8b 05 be c6 b4 29 bd 79 8e af 3b a4 d8 d1 bd
       -0.1304135 -0.041432165 0.0053575602 -0.10246399
000200 33 9e e0 3c 1c aa d4 39 6f a6 04 be b5 fa c3 3d
       0.027419185 0.00040562532 -0.12954114 0.09569303
000210 2d 50 af bd 7d 3a ef bc c8 b9 20 3e 26 f9 0a be
       -0.08560214 -0.029202694 0.1569587 -0.13571605
000220 0c 08 48 3c 63 86 48 3d 6b a0 0c bd 54 9e 82 3d
       0.01220895 0.048956286 -0.034332674 0.06377855
000230 a9 b8 82 3d ad cb 43 3d 59 f3 19 3e 41 b4 1a be
       0.063828774 0.047801662 0.15034236 -0.15107824
000240 f1 e0 8b 3d 75 59 df bd 42 29 a5 bc d0 43 93 3d
       0.068300135 -0.109057344 -0.020161275 0.071906686
000250 a6 68 ee 3a b1 a1 8f bd 33 29 18 bd 34 b0 51 bd
       0.0018189147 -0.07013262 -0.037148666 -0.05119343
000260 cf c0 91 3c e0 68 16 3e 10 f3 09 3e 3b 6b f3 bc
       0.017792134 0.14688444 0.13471627 -0.029714217
000270 90 8c ef 3d 6e 98 d2 bd 05 8a 03 be e6 a0 32 be
       0.11696732 -0.1028298 -0.12845619 -0.1744419
000280 22 b5 2c 3d bd 7b 14 3e c0 2c f0 bd 50 0b e0 3d
       0.04216493 0.14500327 -0.117272854 0.10939658
000290 a3 ed eb 3d 43 39 08 be 7d 1f e0 bd 21 3b e0 bc
       0.11519935 -0.13303094 -0.10943506 -0.027371945
0002a0 7d 11 9b bc 2e 1a b7 3d c4 cb b4 3d 30 dd f5 3d
       -0.018929237 0.0894054 0.08827928 0.12005079
0002b0 0d 47 af bd 07 f3 2e be ca e0 be 3d 00 6b fb 3d
       -0.08558474 -0.17084895 0.09320219 0.12276268
0002c0 e2 00 f2 bd 47 ff 30 3c 2b 77 a2 3d 15 c9 13 be
       -0.11816575 0.01080305 0.07932886 -0.14432175
0002d0 45 72 b4 3c 9f 32 b8 3d 16 3b b4 bd 42 b6 b6 bd
       0.022027144 0.0899403 -0.08800332 -0.08921482
0002e0 62 c1 21 be 8f 74 cc ba e4 5f 52 bd 1c fa 2d be
       -0.15796426 -0.0015598702 -0.05136098 -0.1698994
0002f0 55 ee 2a be ad 5e ba bd 3e de 6a 3d 03 d9 fb bd
       -0.16692479 -0.09100089 0.057340853 -0.12297251
000300 35 39 14 be 5b c5 b4 3d 21 a5 ac bd f9 b1 a0 bd
       -0.14474948 0.08826705 -0.08429933 -0.078464456
000310 6e 14 5b bd 56 f4 82 3d b9 2f 03 3e 43 f0 b7 bd
       -0.05348628 0.0639426 0.12811173 -0.08981373
000320 45 2d 86 bd ab d3 f0 3d 63 41 ca 3d 03 9c bb bd
       -0.06551603 0.117591225 0.09875753 -0.09160616
000330 46 78 31 3e 0c 08 3b 3d a4 a3 b8 bd 63 1e 17 3e
       0.17331037 0.04566197 -0.09015587 0.14757685
000340 ab 55 16 3e e1 6b 25 3e 74 46 91 bd 04 7d 06 3e
       0.14681117 0.16154434 -0.07093516 0.13133627
000350 e7 0f af bd 5b 9f 1e be fd 78 05 be 7b d8 d2 bd
       -0.08547955 -0.15490477 -0.13034435 -0.102951966
000360 d9 16 25 be 0a b9 8b bc 80 73 26 3e 38 b6 2b 3c
       -0.16121997 -0.017056007 0.16254997 0.010480456
000370 6e e1 00 be 74 94 c6 3c e2 ee c9 bb 2a 4e f2 bd
       -0.12585995 0.02424071 -0.0061625103 -0.11831315
000380 96 e3 65 bc 8b 95 17 be 73 52 4d 3d fd 9f 33 3e
       -0.0140313115 -0.1480314 0.050127458 0.175415
000390 8e ff aa bd 5d 38 fa 3d f6 04 d7 bd 49 42 b0 3d
       -0.083495244 0.12217782 -0.10498993 0.08606393
0003a0 c8 cb 73 3c 5a db 71 bd 3a 26 24 3e ca 49 6a 3d
       0.014880128 -0.05904708 0.16030207 0.057199277
0003b0 20 88 39 bd e7 7d 7e bc 67 84 d6 3c 2d 24 f0 bd
       -0.045295835 -0.015532947 0.026186181 -0.1172565
0003c0 39 87 aa 3c 17 d9 95 3c d7 f1 fa 3d 2f 35 27 be
       0.020816432 0.018291993 0.122531585 -0.16328882
0003d0 e6 4f 85 3d fa 8e 6c 3d cd ab 99 3d dc a8 1d be
       0.0650938 0.05775354 0.075034715 -0.15396446
0003e0 98 87 0e be f9 a4 c9 3d ab c9 5d 3d 48 cf 69 3d
       -0.13918912 0.09845919 0.054147404 0.057082444
0003f0 7c c8 71 bb c6 2b 10 3e 8b a3 91 3d c2 b8 15 be
       -0.003689318 0.14079198 0.071112715 -0.14621261

encoder.query_fc.weight f4 [256, 32]
000000 34 36 fd bc e4 38 d5 3d fc fb 80 bd a1 39 5c bd
       -0.030909635 0.10411242 -0.06298062 -0.053765897
000010 3a d4 e2 3d a8 08 1a be 00 ec 3b be 7a 0c b4 bd
       0.11075635 -0.15042365 -0.18351746 -0.08791442
000020 cd 09 ac bd 5c 2b 5d 3d 50 c7 18 be e2 5c 3c 3d
       -0.08400307 0.05399643 -0.14919782 0.045987017
000030 e0 44 11 bc d2 6b 1c 3e a6 0a a7 bd 89 1b 14 3e
       -0.008866519 0.15275505 -0.08156328 0.14463629
000040 79 df f2 bd 55 67 2e 3e 4b d8 8b 3c 59 89 6e bc
       -0.1185903 0.17031606 0.01707091 -0.014559113
000050 cf 5f 19 3e 44 68 ce 3c d7 57 94 3d 54 3f 02 3e
       0.14977954 0.025196202 0.072433166 0.1271947
000060 fa 6e 0b 3e 34 60 cf 3c 85 62 5e bd b5 ee de bd
       0.13616553 0.025314428 -0.054293174 -0.108853735
000070 75 69 28 be f8 b9 22 be 45 62 21 bd b8 00 fb 3b
       -0.16446479 -0.15891254 -0.039400358 0.007659998
000080 ec 8d 13 3e b2 dc 37 be 2e 43 e7 3d d3 a9 fc 3b
       0.14409608 -0.17955282 0.112921104 0.0077106743
000090 a1 0c be bd 50 3c 3f 3e 64 39 89 bd fd 11 b5 3d
       -0.092797525 0.18675351 -0.067003995 0.088413216
0000a0 5b 5c f5 3d 1f ae 10 be 8c 1c 67 bd 0d bb 28 bd
       0.11980506 -0.14128922 -0.05642371 -0.04119401
0000b0 18 c3 a2 bc a1 f3 8b 3d cc b9 01 be d3 0d 3a bd
       -0.019868419 0.06833578 -0.12668532 -0.04542334
0000c0 ca 49 21 3d dc 97 2a 3c e1 fd e0 bd 7e e9 15 3e
       0.03937701 0.010412183 -0.109859236 0.14639851
0000d0 95 0b ff 3d 8b a9 89 bc e4 ac 35 3e c4 a7 cb 3d
       0.12453381 -0.016804477 0.17741734 0.09944108
0000e0 c1 d9 2d 3d 9d 93 0f be 4f 8d f4 bd cb 5e ae bc
       0.042443994 -0.14021154 -0.11941015 -0.021285435
0000f0 bf 65 0f 3e dd 2d e5 3c 84 87 2f 3e c0 80 0d 3e
       0.14003657 0.02797597 0.17141539 0.13818645
000100 56 e7 27 be 06 15 7e bc 02 1c 21 3c 01 1e 3c be
       -0.16396841 -0.015507942 0.009833338 -0.1837082
000110 76 6b 1f bd 61 a6 af 3d ae e8 2a be b0 e0 17 3d
       -0.038920842 0.08576656 -0.16690323 0.037079513
000120 ec af be bd 47 23 32 3e fd 24 05 3e b3 d5 ae 3d
       -0.09310898 0.1739627 0.13002391 0.08536854
000130 3b ab 46 be 97 2f 68 3b a1 43 21 3e 9e 7e 6f 3d
       -0.19401257 0.0035428756 0.15748455 0.05847036
000140 3b cf 13 be 1a 7f 2e 3e 2f f7 20 be 75 61 1a 3e
       -0.14434521 0.17040673 -0.15719293 0.1507624
000150 1b 26 89 bd 4c 77 b3 3d 76 17 ad 3c 46 34 33 bd
       -0.06696721 0.087629884 0.021129351 -0.043751024
000160 e1 0b 0a 3e 85 80 9e bd cd bf f9 3d c2 46 62 bc
       0.13481094 -0.07739357 0.12194786 -0.013810815
000170 4f e3 2f 3e c9 01 67 bd 6e 48 3a 3d 59 ba 2b 3c
       0.17176555 -0.056398187 0.04547923 0.01048144
000180 a7 82 28 3e 19 17 b7 bd 79 b2 b1 bd c0 62 ac 3d
       0.1645609 -0.089399524 -0.08676619 0.084172726
000190 f9 0a 13 bd 31 86 8d bc ed 32 0a be 25 be 4b 3d
       -0.035899136 -0.017275902 -0.13495989 0.049741883
0001a0 45 56 a2 3d ff 50 03 be 0a c7 0c be be 8c 89 bd
       0.07926611 -0.12823866 -0.13747802 -0.067162976
0001b0 cc bd 29 be 80 26 0c bd b7 b8 14 be f6 f2 0c 3d
       -0.16576308 -0.034216404 -0.14523588 0.034411393
0001c0 66 de 04 be 17 c9 12 3e bf 97 55 be bc 22 2f 3d
       -0.12975463 0.14334522 -0.20858668 0.042757735
0001d0 1a 47 86 3d 2f 5e a9 bd 69 34 00 3d 8c 55 21 3e
       0.0655653 -0.08269917 0.031299982 0.1575529
0001e0 04 79 e2 3d 66 77 ff bd 93 ec 2a 3e 1c 2e 0f 3e
       0.11058238 -0.12473945 0.16691808 0.13982433
0001f0 93 0e fe bc 87 8d 59 3d 09 2a 14 be c7 04 0a 3e
       -0.031012809 0.053113487 -0.1446916 0.13478385
000200 9c ee d0 3d bd 63 d9 3d 74 23 81 3d 9f 98 6d 3d
       0.10201761 0.10614727 0.0630559 0.05800688
000210 3b bf c8 3d 3b 7b 80 3d d7 8b e9 3d e3 b0 ab bd
       0.09802099 0.06273504 0.114036255 -0.08383348
000220 3c 1e 1a 3d ef 5e 1a be 64 56 b3 3d d6 7d 92 bd
       0.03762649 -0.15075277 0.08756712 -0.071529076
000230 53 a2 1d 3e 09 84 c9 bd d5 a2 d3 bd 15 bf 9b bd
       0.15393953 -0.09839637 -0.10333792 -0.076048054
000240 3c bb 2e 3e 08 ec 38 be 67 ff bc bd 3b 72 cd 3d
       0.17063612 -0.18058789 -0.09228402 0.10031553
000250 c0 bb b5 bd f6 4f c2 3d 2e 9b e0 bc 87 39 22 3e
       -0.08873701 0.094879076 -0.027417745 0.15842257
000260 b4 84 52 bb 30 75 ba 3d 66 8c 03 3e b2 ec c8 3d
       -0.0032122554 0.09104383 0.12846527 0.09810771
000270 ee 3c 50 3d 59 73 20 bd 20 27 36 3e e3 d0 10 3d
       0.050839357 -0.039172504 0.17788363 0.03535546
000280 a9 a5 7c 3c 73 1b b6 3d d4 7d 97 bb a7 99 cd bc
       0.015420356 0.08891954 -0.004623154 -0.025097681
000290 ad 87 8c bc 8f 5f 2c bd ae 0a f6 bd f9 e1 3b be
       -0.017154539 -0.04208332 -0.12013756 -0.1834792
0002a0 97 c8 ea 3d e4 24 91 bd ad 99 1e bc 69 ae 43 3c
       0.11464041 -0.070871145 -0.009680194 0.011943438
0002b0 0f 75 0c be 28 15 3a 3e 6b 1e b4 3d 6b f9 c2 bd
       -0.1371653 0.18172133 0.08794864 -0.09520229
0002c0 64 e8 ca bd 83 28 f6 3c 32 5f 6c bd 1d c3 c6 bd
       -0.09907606 0.030048614 -0.057707973 -0.09705184
0002d0 bd 29 02 bd ef ba 84 bd b2 5c 06 be 3d 81 50 bb
       -0.031778086 -0.06480967 -0.13121298 -0.0031815313
0002e0 52 c3 bf 3d 9a fc 2b 3e f2 f4 9f bc 06 89 12 3d
       0.09363426 0.16795579 -0.019525979 0.035775207
0002f0 fc 82 e4 bc 60 59 75 bd 9d 2a 87 3c 3b a3 0c be
       -0.02789449 -0.059899688 0.016499812 -0.13734142
000300 74 e2 08 3e d8 45 be 3d 19 7d a8 3d 55 9c d4 3d
       0.13367635 0.092906654 0.082269855 0.103813805
000310 e3 21 e5 3d 8f 2d 1c bc 6b 64 09 be 32 e4 7a bd
       0.11188104 -0.009532346 -0.13417213 -0.06125278
000320 41 89 03 3e d1 f0 5d 3d 01 fb 1e be 24 25 8d 3d
       0.12845327 0.05418474 -0.15525438 0.0689185
000330 35 78 ad bd 83 45 d6 bc 9f 1b d1 3d 06 2d 09 bd
       -0.08470193 -0.026156193 0.102103464 -0.033490203
000340 ab aa 93 bd f0 61 0f be ed f7 12 bd 9d 90 da bd
       -0.07210287 -0.14002204 -0.03588097 -0.10672114
000350 ad 83 6f 3d ae 1c 01 bd c1 eb bb 3a da 44 a3 3c
       0.058475185 -0.03152149 0.0014337228 0.019930292
000360 76 f9 1c bd 07 71 f5 3d 49 54 3f be 50 d4 14 bd
       -0.038323842 0.11984449 -0.18684496 -0.03633529
000370 6b 8a 09 be 48 9a 94 3c df 52 5d 3d e5 b9 90 3c
       -0.13431709 0.018139973 0.05403411 0.017666766
000380 cf 0d 54 bd 2e 1b 0c 3e da ae 10 3e 67 69 d6 bd
       -0.05177098 0.13682243 0.141292 -0.10469323
000390 18 11 77 bc bb a7 5d 3d b7 22 0a bc ed fe 9b 3d
       -0.015079759 0.05411504 -0.008431128 0.076169826
0003a0 42 69 df bc a3 0c 0a bd e2 c0 f5 3b c7 8f 32 3e
       -0.02727187 -0.033703458 0.0074998 0.17437659
0003b0 23 9e 17 be c2 0e 9b 3c 54 df 00 3e 41 af 0c bd
       -0.14806418 0.018927936 0.12585193 -0.034346823
0003c0 41 62 1e be fd b4 10 3e 54 29 48 bd 94 1b 04 3c
       -0.15467168 0.14131542 -0.04886754 0.008063216
0003d0 ae c9 48 3e 34 b7 73 3d bc 04 ee bd 9a c6 cc 3d
       0.19608185 0.059500888 -0.11621997 0.09998818
0003e0 00 82 f1 3d 2e ce 3f bc 11 af a4 bd f2 c1 3f 3d
       0.11792374 -0.011706872 -0.08041204 0.04681582
0003f0 59 70 42 3d 61 e6 18 be c6 f5 0e 3d ef 23 0f 3e
       0.047470424 -0.14931633 0.034902357 0.13978551
